model.pth (torch, 400346 bytes, 22 tensors)

net.0.weight f4 [16, 1, 3, 3]
000000 50 6a 8d 3e d4 48 9a 3e 14 c0 79 bd 69 d6 61 3d
       0.27620173 0.30133688 -0.060974196 0.055136118
000010 bb 50 1a bd f3 0b 43 be 3c d0 15 be e3 3c 66 3d
       -0.037674647 -0.19047527 -0.14630216 0.05621041
000020 17 36 9c 3e 7e c7 6a bb b5 84 92 3e e6 55 6d be
       0.30510017 -0.0035824473 0.28616872 -0.23177299
000030 31 86 70 3e 0b 8e a6 3d 35 c1 a5 be e4 f1 d4 bd
       0.2348869 0.08132561 -0.32373968 -0.103976995
000040 42 79 20 3d cc 41 95 3e 66 64 49 bd 2a 4f 30 bc
       0.03917814 0.29151762 -0.049168013 -0.010761062
000050 54 b1 23 be 23 12 64 3e aa 1c 11 3e 76 e9 55 bd
       -0.15985614 0.22272544 0.1417109 -0.0522246
000060 a1 91 84 3e b0 88 5e bd fa f3 a0 be 18 5d 88 3e
       0.25892356 -0.054329574 -0.3143614 0.26633525
000070 96 e3 77 be 93 1d dc bc 23 51 ad be 3e d1 9b 3e
       -0.24207911 -0.02686957 -0.33850965 0.30433077
000080 1e 08 a6 3d 72 4c 19 3e 42 f4 25 be 00 4c 51 be
       0.08107017 0.14970568 -0.16206458 -0.20439148
000090 3b 33 3e 3d 50 c3 6b be 28 21 1a 3e 3f 65 87 3d
       0.046435576 -0.23023725 0.1505171 0.06611108
0000a0 1a ba 9e bd b8 a9 d7 bc 7f ca 55 3e ee a5 b7 bb
       -0.0775034 -0.026326045 0.20878027 -0.005604497
0000b0 71 dc db bd af 4a 95 3e c0 c0 88 3e c3 42 7f 3e
       -0.10735405 0.29158542 0.26709557 0.24927811
0000c0 d9 ea d2 3c 57 2e cf 3d 6f 44 59 3e 8c 08 50 bd
       0.02574675 0.101162605 0.21217512 -0.0507894
0000d0 06 8e 2e 3e b8 09 9d be 97 e0 5c be bd b4 e9 3d
       0.17046365 -0.30671477 -0.21570049 0.11411426
0000e0 6c f4 82 3e 1b 41 8f 3e de 9e 04 3e fa 54 81 3d
       0.25577104 0.2797936 0.12951228 0.06315036
0000f0 3e 2b 5a 3e 1e c6 52 be b0 91 87 bd 03 ea 8d 3e
       0.21305558 -0.20583388 -0.066195846 0.277176
000100 29 2b 96 be 20 85 a9 bd e9 3b a4 3e e9 ca 59 3e
       -0.29329804 -0.08277345 0.32076958 0.2126881
000110 86 8d 1d be 65 e4 c0 bd 7d dd 26 bc 13 0d 65 3e
       -0.15386018 -0.09418563 -0.010184643 0.22368269
000120 65 3b 1c be 8d a3 58 be 44 ce 17 be 5a f3 0d be
       -0.15257032 -0.2115614 -0.14824778 -0.13862363
000130 d7 c2 76 3c ab 84 98 3e 2b cd 31 be 75 40 13 3d
       0.015061102 0.29788718 -0.17363422 0.035950143
000140 5e b0 98 be 9e 94 6c be 0c 48 17 be 8a 00 21 3e
       -0.29822057 -0.23103568 -0.14773577 0.15722862
000150 bf 0b 6e 3e e6 ef 5a 3e eb c0 00 3e c2 3e d6 b8
       0.23246668 0.21380576 0.12573592 -0.00010216005
000160 cf 7b 32 3e 0e 5e 42 3e b3 da f0 bd 74 2e 30 be
       0.17430042 0.18981192 -0.117604636 -0.1720522
000170 5e d4 49 3d ac 24 8a be 3d d0 93 3e 3c f5 42 3e
       0.049274795 -0.26981103 0.2886981 0.19038862
000180 27 39 6d bd 3f 37 72 3d d1 b0 ab 3c 5c 42 9d be
       -0.057915833 0.059134718 0.020958336 -0.3071469
000190 69 df a3 be 07 a3 7f be 66 99 a5 3e 26 35 76 3e
       -0.32006386 -0.24964534 0.32343596 0.24043712
0001a0 1e da 87 3c ed cf 73 3d 58 cd 54 be 30 6b 7d 3e
       0.016583499 0.059524465 -0.20781457 0.2474792
0001b0 1c fd 18 3e 53 6f aa bb 60 c8 ac 3e 68 0f 97 3e
       0.14940304 -0.005201259 0.33746624 0.29503942
0001c0 4d 78 c9 3d b0 c3 62 be a5 5e 83 be a3 f7 0d be
       0.09837399 -0.22144961 -0.25658146 -0.13863997
0001d0 77 29 1a 3e 1f 13 25 be d4 7e 33 bd e2 d3 5b 3e
       0.1505488 -0.16120575 -0.043822125 0.21467546
0001e0 aa cb f3 3d fe 7f 3b 3e 46 5c 46 3e 42 b6 88 bd
       0.1190408 0.18310544 0.19371137 -0.06675388
0001f0 ab 55 ca 3b 1e 8e 2e be c2 02 da 3d a4 fa 89 bd
       0.006174763 -0.17046401 0.10645057 -0.06737259
000200 09 7e df bd 74 3d b4 be 21 86 e9 ba 77 52 79 3e
       -0.10912711 -0.35203135 -0.0017816463 0.24347864
000210 14 c4 6e be 12 1f 8e be 52 cc 72 3e cc 3d 93 3e
       -0.23316985 -0.2775808 0.23710755 0.28758085
000220 75 0d e8 bc c5 a6 c6 3d ca a5 7d be ff 35 94 bd
       -0.02832673 0.096997775 -0.24770275 -0.072368614
000230 3d ea 6e bd a1 6d 9e bd 13 e3 97 3d 73 80 9f 3e
       -0.058328856 -0.07735754 0.07416358 0.31152686

net.0.bias f4 [16]
000000 d5 18 a3 be ab f5 ca 3d d9 6e 32 bd 84 49 f4 3d
       -0.31854883 0.09910139 -0.043562744 0.119280845
000010 50 2d a4 3d 3c 32 91 be c8 42 26 3e c8 51 13 bd
       0.08016455 -0.28358638 0.16236413 -0.035966665
000020 2f 98 84 3c 43 87 d2 3d 86 65 8d be cd e6 9e 3e
       0.016185848 0.102797054 -0.2761652 0.31035462
000030 10 0d 5d be 70 02 33 3e b2 c1 ef 3c 63 51 53 3e
       -0.21587014 0.17481399 0.029267166 0.20636515

net.1.weight f4 [16]
000000 00 42 7f 3f cc bb 80 3f 84 42 7e 3f f5 9a 82 3f
       0.99710083 1.0057311 0.99320245 1.0203539
000010 0f fb 80 3f 1e e8 7e 3f e7 d4 7d 3f 9f aa 7e 3f
       1.0076617 0.9957293 0.9915299 0.994791
000020 0f 52 84 3f ab b8 7c 3f 83 d3 7e 3f 88 fe 80 3f
       1.0337542 0.9871928 0.9954149 1.0077677
000030 97 33 7e 3f 0a c7 7e 3f 0a b9 7f 3f 87 d1 7e 3f
       0.9929747 0.9952246 0.9989172 0.99538463

net.1.bias f4 [16]
000000 1d 3e 0e 3d 05 64 6a 3c aa 2e 91 bb 57 9e 7a 3c
       0.034727205 0.014306073 -0.0044306116 0.01529654
000010 5b 89 d4 3c b2 57 8c 3c 08 b2 4d 3a b1 8b 62 3b
       0.025944402 0.01713166 0.0007846658 0.0034568126
000020 eb 17 8c 3c cf b2 80 bc 73 fd 31 bc f1 24 d2 bc
       0.017101249 -0.015710263 -0.01086365 -0.02565238
000030 5d b9 dd 3c 21 56 7d 3c d0 64 d0 3c 35 ad 46 3c
       0.027065927 0.015462429 0.025438696 0.012126257

net.1.running_mean f4 [16]
000000 b6 e1 8a be 77 ae fe 3d 30 40 2f bd 0a 59 d5 3d
       -0.2712533 0.1243562 -0.042785823 0.104173735
000010 0b 2d a5 3d de 9b 4c be bb 53 59 3e c0 78 53 ba
       0.08065232 -0.19981334 0.21223347 -0.00080670044
000020 b7 12 47 bd eb 34 2b 3e 61 c1 8c be 3a bf 97 3e
       -0.048601832 0.16719405 -0.27491286 0.29638082
000030 a8 47 3a be 92 8d 4d 3e a0 9a 3d bc c2 a0 6a 3e
       -0.18191397 0.20073536 -0.01157251 0.22912887

net.1.running_var f4 [16]
000000 c7 b2 18 3c 10 c7 01 3c 6f a4 17 3c 86 28 55 3b
       0.009319968 0.007920995 0.009255513 0.0032525375
000010 14 94 4b 3b 4e 01 a9 3c 03 11 19 3c 41 9c 1e 3c
       0.0031063603 0.020630505 0.009342435 0.0096808085
000020 2d 45 23 3c f6 f0 5d 3c a0 aa d6 3b 9f 86 32 3c
       0.009965223 0.013546219 0.006551102 0.010896354
000030 3c 03 fc 3b ef f9 b9 3b f0 ee 5c 3c be d6 b1 3b
       0.0076908153 0.0056755464 0.0134847015 0.0054272106

net.4.weight f4 [32, 16, 3, 3]
000000 d9 b8 3b 3d 8c 3a 74 3d be 75 69 bc 7e d2 8d bd
       0.04583058 0.059626147 -0.014249263 -0.06924914
000010 50 58 d8 b7 81 bc 7f 3d 15 45 94 bc ec 58 d5 3c
       -2.579033e-05 0.06243563 -0.018099347 0.026043378
000020 1d ee e8 bc d5 22 0b 3d 43 ff 5d bd f1 f8 5e 3d
       -0.028433854 0.033968765 -0.054198515 0.054436628
000030 c3 e2 b9 bc 33 07 5a ba a7 a5 54 3d c4 f6 a6 bc
       -0.022691136 -0.0008317113 0.05191579 -0.020381339
000040 58 84 0b 3d 92 96 5b bd 25 a6 ea 3c e4 a9 58 3d
       0.03406176 -0.053610392 0.028643677 0.052896395
000050 5f 30 f4 bc a6 f3 82 bd 27 9d 99 bd ee 8b 70 3c
       -0.029808221 -0.063941285 -0.075006776 0.014681799
000060 27 1d 60 3d 82 e2 a7 3c 1e 7e b4 bc bb e7 a1 bc
       0.0547153 0.02049375 -0.022032794 -0.019763818
000070 8e a9 51 bd ec 3e 0b 3d 1b 41 1c bc 5d d1 de bc
       -0.05118709 0.033995554 -0.009537007 -0.027199442
000080 33 3b 37 3d 58 88 06 3d cb aa e2 3c 1f bd 15 bc
       0.04473419 0.03284487 0.027669331 -0.009139328
000090 ef b9 7e bc d2 7a 64 3d a2 20 05 3c 2d d4 c1 bc
       -0.01554726 0.055781193 0.008125456 -0.023660744
0000a0 ff 4e 3e 3d 19 98 14 3d 70 fd 0c 3d 16 ba 6b 3d
       0.046462055 0.036277864 0.034421384 0.057550512
0000b0 53 22 86 bc 1e 2e 99 bc a6 83 8f 3d dc ac 44 3d
       -0.016373789 -0.018698748 0.07007532 0.048016414
0000c0 5f e9 95 bd d1 10 ae bd fa 31 5c 3d 81 87 8c bd
       -0.07319903 -0.08499301 0.0537586 -0.06861783
0000d0 c4 d6 a5 bd 4a 5f 3e bc 7f 3c 1d bd 9b 45 9e 3d
       -0.08097604 -0.011619398 -0.03838777 0.0772812
0000e0 ff cf 3a bd 8e 12 84 3d 56 fe 4b 3d 9b 4c 65 3c
       -0.045608517 0.064488515 0.0498031 0.013995315
0000f0 dd fb 23 bd df 25 4c 3d 5b 68 96 3c 80 d5 71 3c
       -0.040035117 0.049840804 0.018360307 0.014760375
000100 19 27 21 bd cf a6 58 3d d9 32 80 bc 47 49 31 bb
       -0.039343927 0.052893456 -0.015649246 -0.0027051733
000110 80 e2 ba 3b 87 8e 94 3d d4 85 6b 3d f4 4b 64 bb
       0.0057032704 0.072537474 0.057500675 -0.003483531
000120 d1 4c 89 bc 04 04 6a bd a0 84 19 3d f5 3a 52 3d
       -0.016760262 -0.057132736 0.037479997 0.051325757
000130 ea 8a 89 bd a8 6a 40 bd 62 ec 28 3d 77 c7 68 3d
       -0.06715949 -0.046976715 0.041241057 0.05683085
000140 f6 9b 20 3d 36 8c 47 bc 35 28 c4 bc 5f b6 20 bd
       0.039211236 -0.012179425 -0.023944953 -0.039236423
000150 60 86 a5 3c 11 ab 84 bd d2 75 96 3d e8 aa b6 bd
       0.020205677 -0.06477941 0.07346691 -0.089193165
000160 ce 20 75 bd 8a 85 39 3d 46 79 c9 bc 98 2b 92 bd
       -0.059845738 0.04529337 -0.02459396 -0.07137221
000170 f6 8a 92 3c eb 9c 94 3c 21 0d 4b bd 03 53 61 bd
       0.017888527 0.01814123 -0.049573068 -0.055010807
000180 5d f2 08 3d f6 1a f3 3b b8 92 92 bc 62 a0 29 3d
       0.03343426 0.0074189855 -0.017892227 0.04141272
000190 2d 52 b7 3c b8 33 b3 3d 89 cf f0 bb 43 a7 8a bd
       0.022378052 0.08750099 -0.007348959 -0.06770184
0001a0 c6 2f ad bd bb 33 12 3d 82 10 51 bc 77 0b 91 bd
       -0.08456378 0.035693865 -0.012760283 -0.07082265
0001b0 b5 d0 88 3d 59 11 24 bd 39 28 24 3d c0 0b ad 3c
       0.06680433 -0.040055607 0.04007742 0.021123767
0001c0 11 c7 5e bd bd 99 5f 3d 99 d5 36 3d 96 07 b8 3d
       -0.054389063 0.054589976 0.044637296 0.08985822
0001d0 3f d6 40 bc 6a 85 02 3d 0a d0 91 3d 56 bb bf bc
       -0.01176983 0.031865515 0.071197584 -0.023404758
0001e0 f0 d6 4c 3c 82 40 13 bd 21 fd 2b bd e8 58 9f 3d
       0.012502417 -0.03595019 -0.04198945 0.077806294
0001f0 38 f4 88 3d d6 20 88 3d a7 96 7b bc 8e e2 1e 3d
       0.06687206 0.06646888 -0.015355743 0.038790278
000200 45 ff 2d bd 07 b1 5b bd cd a5 52 bd ea 1f 55 bd
       -0.042479772 -0.053635623 -0.05142765 -0.05203239
000210 1a e1 60 3d 8e fa 8f bb 5e 82 fc 3a ad 26 cb bc
       0.054902174 -0.004393882 0.0019264927 -0.024798715
000220 13 b9 55 3d 3d 5b 52 bd d3 90 11 3c e2 4c a4 bd
       0.052178454 -0.051356543 0.008884626 -0.08022477
000230 e6 7d 87 bd a8 4e 6b 3c 7a 66 eb 3c 8c 3f 80 bc
       -0.0661581 0.014362015 0.028735388 -0.015655302
000240 b8 c0 18 bd e1 02 e3 3c 6a 98 9f bc 98 8e 3b bd
       -0.037293166 0.027711334 -0.019481856 -0.045790285
000250 e6 03 68 bd e0 63 42 3d 68 96 76 3d d8 ee 5d bd
       -0.056644343 0.04745853 0.060202032 -0.054182857
000260 a7 0a af 3d e7 ee a0 3d b3 63 4a bd 56 c6 c7 3b
       0.08546954 0.07858067 -0.049411487 0.0060966415
000270 77 c5 71 bd 1e 03 5d 3d a3 d5 e0 bc c9 66 29 3d
       -0.059026208 0.05395805 -0.02744562 0.04135779
000280 0a 54 3d bd 30 a9 1e bd 75 b5 ad 3d 21 32 86 bd
       -0.046222724 -0.03873557 0.08481876 -0.0655253
000290 4a 3a 3b 3c f1 16 1e 3b fc d5 e8 3c e1 04 30 3d
       0.011427471 0.002412256 0.028422348 0.042973403
0002a0 64 25 09 3d b2 4f a5 bd e2 14 1a 3d 14 b0 9a 3d
       0.033482924 -0.08071841 0.03761757 0.075531155
0002b0 f5 da 6b 3d e7 00 7d 3d 7e f3 e5 bc 06 34 40 3d
       0.05758186 0.06176844 -0.028070208 0.046924613
0002c0 bc 73 20 3c 49 38 31 bd 88 8b d8 3c cd 88 e8 3b
       0.009793218 -0.04326657 0.026433721 0.007096386
0002d0 76 10 61 3d 54 fb 1b bd e5 9b 9d 3b b7 8a e8 3c
       0.05494734 -0.038081482 0.004809844 0.028386457
0002e0 2c 39 d6 3c 4f 7b df 3c f8 da 0d bd b9 4a c2 bd
       0.026150309 0.027280478 -0.034632653 -0.094869085
0002f0 e2 94 60 3d 3c 47 10 3d e8 97 07 bd df bc 29 bd
       0.054829486 0.035224184 -0.033103853 -0.041439887
000300 fd 7f a1 bd 6c 97 ab bb e6 dc 98 bd 0c fd 18 bd
       -0.0788574 -0.0052365568 -0.07464008 -0.0373507
000310 69 db 3c bd bb b1 a5 bd df 4b 5f 3b 87 80 9d bd
       -0.046107683 -0.0809054 0.0034072322 -0.0769053
000320 18 ef 05 3c 42 19 8d 3d bc 37 89 3d e8 0a a3 3b
       0.00817468 0.06889583 0.067000836 0.0049756654
000330 ba 45 5b 3d bd 41 13 3d fc 28 18 bc 4d de 98 bd
       0.053533293 0.035951365 -0.009287115 -0.074642755
000340 c6 85 77 bd 47 7d 28 3c c7 c4 e8 3c 06 11 ef bc
       -0.06043031 0.010283775 0.028414143 -0.029182922
000350 fb 7d 1f 3d 28 e9 a7 bc ec d6 a2 bd 7b 7d c9 3c
       0.038938504 -0.02049692 -0.07951149 0.024595967
000360 9c c5 44 ba 63 a6 09 3d 74 48 52 3d ae d0 2d 3d
       -0.0007506253 0.033605944 0.051338628 0.04243534
000370 17 bb 54 3d 84 dc b0 bd 4e ba 0c 3c 58 80 91 bd
       0.051936235 -0.0863581 0.00858934 -0.07104558
000380 bf 63 65 3b 28 fb de 3b 23 69 c0 3c b5 84 c1 3c
       0.003500208 0.0068048425 0.023487633 0.02362285
000390 97 23 8f bd 01 71 b7 bd 0d f6 11 3c 43 db 0e bc
       -0.0698921 -0.08957101 0.008908761 -0.008719268
0003a0 21 8b 7d 3d 60 9a 86 3c f2 e2 00 3d b2 01 7a bc
       0.06190026 0.016431034 0.031466432 -0.015259193
0003b0 b3 a2 73 3d 21 e2 b8 3c 86 8d 24 3d be a1 b6 bd
       0.059481334 0.022568764 0.04017403 -0.089175686
0003c0 c8 c0 57 3c 18 29 80 3d 6e c5 e9 3b 83 71 07 bd
       0.013168521 0.06257838 0.007134131 -0.033067238
0003d0 63 9c 1f 3d 45 55 1e bd 0d 68 9a 3c 21 f8 8d 3c
       0.0389675 -0.038655538 0.018848443 0.017330231
0003e0 95 c5 72 bc d3 5c db bd 35 18 6e bb 78 63 90 bd
       -0.014817615 -0.10711064 -0.0036330346 -0.07050222
0003f0 01 83 28 bc 59 dd 55 bc 58 47 0a bd f9 e6 23 bc
       -0.01028514 -0.013053262 -0.033759445 -0.010003799

net.4.bias f4 [32]
000000 1d 69 81 3d 98 75 2e bd 79 2d 8b bd 79 5f 2c 3c
       0.06318877 -0.042592615 -0.067957826 0.010520809
000010 85 22 99 3d a6 0d ab 3d 17 23 56 bd c0 84 5a 3d
       0.07477287 0.083522126 -0.052279558 0.053349257
000020 fb 96 89 3d 01 c5 8e bd 98 9f 90 bd 92 c6 e2 ba
       0.0671825 -0.06971169 -0.0706169 -0.001730161
000030 16 db c7 3c cf c9 19 bc 79 e4 b2 3b 74 bc 2f 3d
       0.02439646 -0.009386494 0.005459365 0.042904332
000040 90 12 81 bc 5a 4e 4c bd 7f 14 3b bd f1 d5 73 bd
       -0.015755922 -0.04987941 -0.045673843 -0.059530202
000050 a3 61 f9 bc b1 16 86 bd f5 89 81 3c c8 6d 62 bd
       -0.030442065 -0.06547297 0.015812853 -0.055280477
000060 ed 66 a4 3d 40 c2 c9 3a af 06 4c 3d 61 e2 32 3d
       0.08027444 0.0015392974 0.04981106 0.043672923
000070 6c f5 88 bc 18 06 9f bc 0e 3a 84 3d 32 23 c8 3c
       -0.016718589 -0.019412085 0.064563856 0.024430845

net.5.weight f4 [32]
000000 b9 77 80 3f 88 9e 82 3f ce d7 7a 3f 8e ae 81 3f
       1.0036536 1.020463 0.9798554 1.0131395
000010 87 0a 81 3f 25 3d 79 3f 01 a6 7f 3f 78 62 83 3f
       1.0081338 0.97358924 0.99862677 1.0264425
000020 8e ba 7a 3f cd 7b 83 3f 9f 18 7e 3f 57 8a 80 3f
       0.9794091 1.0272156 0.9925632 1.0042218
000030 93 6c 80 3f 3b bc 79 3f a9 04 7d 3f 18 b7 7e 3f
       1.0033134 0.9755284 0.98835236 0.9949813
000040 ba 02 82 3f 65 23 7b 3f 94 38 81 3f d7 97 7e 3f
       1.0157082 0.9810088 1.0095391 0.9945044
000050 9e 51 81 3f f5 e3 80 3f 3b 2b 7f 3f ae 61 81 3f
       1.0103033 1.0069567 0.9967534 1.0107934
000060 01 f7 80 3f 4d 9b 7c 3f bc 09 82 3f fb 70 80 3f
       1.007538 0.9867447 1.0159221 1.0034479
000070 ac 03 82 3f ff 05 7b 3f c1 41 7b 3f fd 47 83 3f
       1.015737 0.98056024 0.9814721 1.0256344

net.5.bias f4 [32]
000000 05 fd dd bc 61 eb 41 bb 12 c8 1c 3a 5d 3b 54 bc
       -0.027098188 -0.002958976 0.00059807405 -0.012953606
000010 e5 e3 db bc dc ae e9 bc e2 71 97 bb 79 d6 47 bc
       -0.026842067 -0.028525762 -0.00462173 -0.01219713
000020 ad 10 da ba 8c 47 6e bb 26 c0 34 bc df d5 a1 bc
       -0.001663705 -0.0036358563 -0.01103214 -0.019755302
000030 b1 77 e0 bb f9 1d f6 bc 75 22 ba bc bb 8a f3 bb
       -0.006850206 -0.030043589 -0.022721509 -0.0074323094
000040 2b b8 de bc 27 3a fa bc 3e 3a dc bc 54 0a 2c bd
       -0.027187428 -0.030545307 -0.02688324 -0.042002037
000050 fc 7a 57 bc 48 f0 9c bc c2 86 02 bd d0 77 bd 3a
       -0.01315188 -0.019157544 -0.031866796 0.0014455263
000060 0c c4 74 ba 2d 2b ee bb 4a 95 5f 3b 3f b1 62 bc
       -0.00093370746 -0.0072683305 0.0034116083 -0.013836204
000070 9e d9 11 bc 18 4d a2 bc 87 8d bf bc 10 9b 92 3c
       -0.008901982 -0.019812152 -0.023382915 0.017896205

net.5.running_mean f4 [32]
000000 b1 97 81 3e e3 25 9c be 78 d4 f4 3e 1a a0 3e be
       0.25311044 -0.30497655 0.4781835 -0.18615761
000010 f6 0b 0c bf cb 77 3e 3f f7 7f fe bd 14 16 26 bf
       -0.5470575 0.7440154 -0.12426751 -0.6487744
000020 ae 7e 3d 3f b9 a1 b7 bc 9b 9e 85 3e c8 db 04 bf
       0.7402142 -0.022415983 0.2609757 -0.5189786
000030 3a 14 19 be f1 9d ef bd db fc a5 3c d4 b5 93 be
       -0.14949122 -0.11700047 0.020262172 -0.2884966
000040 5a dc 2f bf e5 7a 6e be 89 0b 0d bd c8 33 a1 be
       -0.68695605 -0.23289068 -0.03443483 -0.31484818
000050 d0 07 9c be d8 b9 d6 be d1 cf a2 be c9 5a 5d 3d
       -0.3047471 -0.41938663 -0.31799176 0.054041658
000060 b3 e4 85 bd a6 e5 ad be 17 22 a4 be e8 e0 1c 3e
       -0.065377615 -0.3396427 -0.32057258 0.1532017
000070 31 d8 3b bf 06 82 cc be 7a 54 ad bd 0d d5 12 bf
       -0.73376757 -0.3994295 -0.08463378 -0.5735634

net.5.running_var f4 [32]
000000 3a d8 51 3e a1 1b 5f 3e 1a 67 d3 3e f1 70 37 3e
       0.2049264 0.21787883 0.41289598 0.17914177
000010 b7 6f a0 3e a7 47 83 3e 40 70 a0 3e 9d 8f 95 3e
       0.31335232 0.25640604 0.3133564 0.2921113
000020 77 1d 9b 3e 1e 8c 53 3e 0f b3 3c 3e 1c db 97 3e
       0.30295917 0.20658919 0.1842768 0.29659355
000030 6b 5d 91 3e 08 9c 2f 3e 2e aa 94 3e fb e2 fd 3d
       0.28391585 0.17149365 0.29036087 0.12396809
000040 19 52 df 3e ff 36 b3 3e e8 51 4d 3e 78 2b d9 3e
       0.43617323 0.35002896 0.20050776 0.42415977
000050 ea 1d cd 3e d1 35 d9 3e 61 9a 94 3e 83 8a 65 3e
       0.40061885 0.4242387 0.29024032 0.2241612
000060 06 82 1f 3e 52 e5 9a 3e 1f fc e8 3e 77 db 13 3e
       0.15576944 0.30253083 0.45504853 0.14439188
000070 00 cb f7 3e c8 7b 86 3e c5 ef 5f 3e ed b2 0f 3f
       0.48397064 0.26266313 0.21868809 0.56132394

net.8.weight f4 [64, 32, 3, 3]
000000 26 35 54 3d a2 72 40 bd 4c 0c 3a 3d eb 96 29 bd
       0.0518085 -0.046984322 0.045421883 -0.041403692
000010 bd f7 96 bb 18 90 46 bc 9f 0c 93 3b 72 6b 5b bd
       -0.0046071694 -0.012119316 0.0044875885 -0.053569265
000020 6e 70 ff 3b a9 99 15 bd 34 bd 14 bb 3b 8c 02 3d
       0.007795385 -0.036523495 -0.0022695782 0.031872015
000030 f5 ec 84 3c 9a 35 dd bb 10 7e fc bc 1b ab 57 3c
       0.016226271 -0.0067507746 -0.03082183 0.013163353
000040 78 3d 6d 3c 61 7a 4b bd 1d f5 36 bd 5e f9 03 3d
       0.014479987 -0.049677256 -0.044667352 0.032220237
000050 29 d2 60 3d 67 27 40 3d 31 b6 e0 bc ca 94 39 3a
       0.054887924 0.046912577 -0.027430626 0.0007079361
000060 02 6c e7 3c d2 34 16 bd 52 02 b8 3b 24 65 4f bc
       0.028249744 -0.036671467 0.005615511 -0.012658391
000070 cf da 35 bc 05 9f 94 bd 06 0c 03 bb f7 f5 45 bd
       -0.011099531 -0.07256893 -0.001999618 -0.048330273
000080 3b 7c 80 bc a3 df e5 3c 30 bd 36 bd a7 9f ef 3c
       -0.015684238 0.02806074 -0.044614017 0.029250933
000090 33 d2 55 bd b0 63 58 bd d6 9e 1c b9 95 e3 0e bd
       -0.052202415 -0.052829444 -0.0001493649 -0.034885008
0000a0 92 44 11 3c 4f 5c 26 3b c1 c9 15 3d 87 8f 4e 3d
       0.008866446 0.002538461 0.03656936 0.050429847
0000b0 c0 4a c2 3b 49 10 58 3d 09 0e d8 3c 72 61 26 3c
       0.005929321 0.052749906 0.02637388 0.010155069
0000c0 63 ac 86 3b 5f 2e 7c 3b 0f 11 2a bd 65 49 82 bc
       0.0041099056 0.0038479788 -0.041520175 -0.015904138
0000d0 4b c6 98 3c e7 2d 0b 3c e8 59 14 bd f3 c2 43 3b
       0.018649241 0.008494831 -0.036218554 0.0029870837
0000e0 97 2d 60 bc 64 48 5f 3d ae 35 02 3c ca fe 69 3d
       -0.0136827445 0.054512396 0.007947369 0.05712775
0000f0 a7 da 24 bd 3d 55 bc bc 65 58 44 3c c4 ae 6a 3d
       -0.040247586 -0.022989864 0.0119839655 0.057295576
000100 47 67 82 3d 85 70 34 3c b2 6e 8f 3c 6f fa b2 3c
       0.06367355 0.011013155 0.017508838 0.021847932
000110 2e cc e4 bc 7d 5c 54 bb d0 9c 03 3d 0c ed 48 bd
       -0.027929392 -0.003240376 0.03213197 -0.04905419
000120 35 1c 4e 3d 50 ae 9d 3c bb 2b 81 3d 08 f4 bd 3c
       0.05031987 0.019248158 0.06307169 0.023187652
000130 ae d3 6f 3c 27 77 02 bc c7 c6 c6 3b 11 c1 be 3b
       0.014637871 -0.007962978 0.0060661766 0.005821355
000140 db 75 e0 bc 80 f5 64 3c 1a 79 33 bd cd a1 af 3c
       -0.027399948 0.013974547 -0.043816663 0.021439457
000150 9a 11 29 3b 62 42 84 bd e5 64 2b 3d 98 0c 4c 3d
       0.0025797845 -0.06457974 0.041844267 0.049816698
000160 00 a3 9c bc fe 59 0c bd c5 f2 e2 3c e7 73 17 bd
       -0.019120693 -0.03426551 0.027703652 -0.036975767
000170 52 9a 62 3c dd 6e 22 3c 71 d1 7f bc 7b ab ab 3c
       0.013830738 0.009914127 -0.0156139 0.020955792
000180 b5 ed cf bc 3e 30 ac 3c ed 50 96 3c 86 a3 34 bd
       -0.025381902 0.021019097 0.018349135 -0.04410126
000190 2d 0a 24 3d 11 5f 04 bd cb 4a 80 3d 03 02 ea bc
       0.040048767 -0.032317225 0.062642656 -0.028565412
0001a0 e5 2a 4e 3d 74 26 07 bc 4e 1c 9b 3c ea 77 c2 3b
       0.050333876 -0.008248914 0.018934395 0.005934705
0001b0 34 0a 9f 3b f6 47 f7 3c 66 6a 0c bd c8 1b 41 bc
       0.004853511 0.03018568 -0.034281157 -0.011786409
0001c0 19 04 f5 3b 9c ea bc bc 9c 77 9c bc 19 a4 fe bb
       0.007477295 -0.02306109 -0.019100003 -0.007771027
0001d0 74 aa a8 bc 0a 28 6e bc 69 1c 80 3d c3 93 0d bd
       -0.02058909 -0.014535913 0.06255419 -0.034564745
0001e0 b7 18 47 bd ca 92 69 bd 34 aa 32 3c bc 54 42 bd
       -0.048607554 -0.057024755 0.010904837 -0.04744409
0001f0 d0 50 0f bd 14 93 dd bc 54 be e9 3c 56 ff 3e 3b
       -0.03498918 -0.027047671 0.028533138 0.0029143891
000200 b7 e1 fe 3c 88 fd 89 3c a2 61 98 bd 93 bc 4a 3d
       0.031113489 0.016844526 -0.07440497 0.049496245
000210 f3 3a 4a ba df 50 3b bd af cc 01 3d ce 73 dc bc
       -0.00077144726 -0.04573142 0.031689342 -0.026910689
000220 9d 85 77 bd f5 9e 74 3c 9f 82 4d bd 7e 1d f0 3c
       -0.060430158 0.014930476 -0.050173398 0.029310938
000230 cc b2 54 3d 71 59 39 bd 7a a6 cf bc 7b 71 53 3d
       0.051928326 -0.045251314 -0.025347937 0.051621895
000240 00 1e ea 3c a3 4b af bc 3a 34 3f bd cb 03 77 bd
       0.028578758 -0.021398371 -0.046680667 -0.06030635
000250 60 93 82 bc ad c7 02 bd d6 c3 78 3d 93 eb 8f bc
       -0.015939415 -0.031928707 0.06073364 -0.017568385
000260 cf f3 81 bc b6 cc ef bc 8f 5a 47 bd b9 89 b9 3c
       -0.015863327 -0.029272418 -0.048670348 0.02264868
000270 b8 52 0c 3d 84 ca 9e 3b 0e c7 34 3c 2d 5b 2b bd
       0.034258574 0.004845919 0.011033786 -0.041835
000280 83 52 03 bd 49 22 b0 3c c0 8c 26 3d 44 2e 62 bc
       -0.03206111 0.021500723 0.040661573 -0.013804976
000290 4d c3 ae bc 0f 54 2d bd ba 18 2e bd 16 b5 30 3c
       -0.021333361 -0.042316493 -0.04250405 0.010785362
0002a0 6f 09 62 bc b6 a7 bf 3c a2 41 66 3c 13 3c 72 3d
       -0.013796194 0.0233954 0.014053734 0.059139322
0002b0 64 71 8d 3c 39 60 7d 3d 54 84 be bc 82 dc e3 3c
       0.017265983 0.061859343 -0.023256458 0.027815107
0002c0 f6 96 21 bd aa 9e 01 bd 67 5f dc bc 00 7c af 3c
       -0.03945061 -0.031645454 -0.02690096 0.021421432
0002d0 2c e4 54 bb a2 2b 15 3b ef 30 ad 3b b5 15 4a bd
       -0.0032484634 0.0022761603 0.0052853744 -0.049337108
0002e0 ca d4 8b bd 86 4b 72 bd 10 3a 11 bd ec 44 59 bd
       -0.06827696 -0.059154056 -0.035455763 -0.053044245
0002f0 16 15 85 ba d0 18 2b bd 31 d8 16 3c e8 e5 7d 3d
       -0.0010153379 -0.04177171 0.0092068175 0.061986834
000300 36 f0 f2 bc 02 67 87 bc c7 39 8f bd 66 a0 31 3d
       -0.029655557 -0.01652861 -0.06993442 0.04336586
000310 54 f9 b7 3d cb 33 53 bd 8a ca 72 bb 66 8e 3a bc
       0.089831024 -0.051563065 -0.0037046992 -0.0113864895
000320 ed cf 9b bd 67 f1 a0 bc 52 76 64 bc 36 cb b8 bc
       -0.07608018 -0.01964636 -0.013944225 -0.022557836
000330 e3 4e 85 bc 80 5a 98 3c fb 1e 98 bc 86 20 a0 3c
       -0.016272968 0.018597841 -0.01856946 0.019546758
000340 8f 18 e2 3c ea 23 87 bd 00 1f 0d 3d ff 4c 58 3d
       0.027599601 -0.06598647 0.034453392 0.052807804
000350 5b 33 47 bd b2 03 04 bd 99 97 bb 3c e7 f4 ee bb
       -0.04863296 -0.032230087 0.022899436 -0.007292378
000360 8c 6d b8 bb 31 60 a4 bb 8d de 00 3d 54 7c 74 bd
       -0.0056282934 -0.0050163497 0.03146224 -0.05968888
000370 34 11 d4 ba 03 f4 37 bd 60 6d 5e bd 04 90 0c 3d
       -0.0016179443 -0.044910442 -0.054303527 0.03431703
000380 0a 2c f1 bc 52 d8 01 bc 9c a8 0e 3d 3c 8c c4 3c
       -0.029439945 -0.00792511 0.034828767 0.02399265
000390 e7 59 3b bb 81 94 3e 3c 19 21 5d 3d d9 dd 04 bb
       -0.0028587522 0.011632086 0.053986643 -0.0020273833
0003a0 84 18 38 3b 5b 6f 1a 3d 50 40 51 3b 6a 0c d6 bc
       0.0028090784 0.037703853 0.0031929202 -0.026128966
0003b0 6c 33 a9 bc 41 1a a3 bc 1a c7 5e bd 5b 77 80 3d
       -0.020654403 -0.01990998 -0.054389097 0.06272765
0003c0 ed 58 35 3c 6d ea 4b bd 4c 66 94 3d 45 6d 87 bc
       0.011068565 -0.049784113 0.07246074 -0.016531596
0003d0 ae b4 b5 3c bb d1 83 3d 31 7d 42 3d 09 46 0d bd
       0.022180881 0.06436487 0.047482673 -0.03449062
0003e0 4e e2 54 bd 4d 7b 6c 3d 4b ff a2 3c 96 99 03 bc
       -0.051973633 0.057734776 0.019897124 -0.008032223
0003f0 66 f9 14 3d 83 eb e7 3c 34 d6 f6 3a 1d 8f 3e 3d
       0.036370657 0.028310543 0.0018832148 0.046523202

net.8.bias f4 [64]
000000 03 0a a1 bc c4 ff 39 3d f0 b5 de bc aa 86 3b 3d
       -0.019658094 0.045409933 -0.027186364 0.045782723
000010 b4 d4 aa 3b cd 10 22 bd a5 8b 98 bb 93 bd 11 bd
       0.0052133445 -0.039566804 -0.004655319 -0.035581183
000020 a2 1a e9 3c 4d d7 ce bc a9 a7 4e bd 17 51 67 bd
       0.028455082 -0.025249148 -0.050452862 -0.056473818
000030 bc 5f d3 3c ff dd bc bc 67 d3 83 bc 20 c4 5e 3d
       0.025802486 -0.023055075 -0.016092015 0.054386258
000040 1f 73 15 bd 6c 76 6a 3d b7 c0 a8 bb d3 db 18 bd
       -0.03648674 0.057241842 -0.0051499265 -0.037319016
000050 6e 69 59 3d a2 ba 70 bd 2d ad 48 bd e6 8b a8 bc
       0.05307906 -0.058771737 -0.04899328 -0.020574521
000060 ee 90 16 bd 39 17 d1 bc b2 66 77 bd 23 0d 01 3b
       -0.03675931 -0.025523769 -0.060400672 0.0019691668
000070 96 0a 0b 3d 61 be d6 3c c6 38 5d bd aa cf 11 bd
       0.033945642 0.026213827 -0.05400922 -0.035598435
000080 8e d5 82 bc 47 e5 1c 3b 7a ac 08 3c 4b 8b 49 3d
       -0.015970971 0.002394037 0.008341903 0.049205106
000090 2b fa 1f bc 14 66 17 bc ac 12 a6 bc c0 62 6e 3a
       -0.009764235 -0.009240646 -0.020272575 0.00090936944
0000a0 f6 3c 0a 3d c4 46 ea 3c b4 46 a2 bc 84 1a 1c ba
       0.033749543 0.028598197 -0.019809105 -0.0005954879
0000b0 96 d3 87 3c 65 0a 52 bd a5 d1 00 bc 8e d0 34 3d
       0.016580384 -0.051279444 -0.007862483 0.044144206
0000c0 11 c5 d8 bc ab 72 5f bc df fb 12 3d 9a f3 c8 3c
       -0.026461156 -0.013638179 0.035884734 0.02453022
0000d0 f8 5a 8f bc cf 56 1e bd 4d 6b cf 3c e2 55 9a bc
       -0.017499432 -0.038657006 0.02531972 -0.01883978
0000e0 39 11 bf 3c a7 94 da 3c b9 65 17 3c 85 9e 26 bd
       0.023323642 0.026682211 0.009240561 -0.04067852
0000f0 d3 44 f2 bc bf b0 12 bd 46 4b 07 bd d2 56 60 3d
       -0.029573834 -0.03581309 -0.03303077 0.0547703

net.9.weight f4 [64]
000000 d9 86 84 3f a3 93 86 3f 8a 45 87 3f 33 bd 85 3f
       1.0353652 1.0513805 1.0568097 1.0448364
000010 82 db 87 3f bc 8d 87 3f 5c da 85 3f dd 4b 85 3f
       1.0613863 1.0590129 1.0457263 1.0413777
000020 ca 72 86 3f bd cf 86 3f c9 1f 86 3f 38 a9 86 3f
       1.0503781 1.0532147 1.047845 1.0520391
000030 62 00 86 3f 85 0b 86 3f 91 0e 84 3f e4 0e 87 3f
       1.0468867 1.0472265 1.0316945 1.0551419
000040 13 a0 83 3f cf 3d 86 3f 14 e4 84 3f 57 fe 82 3f
       1.0283226 1.0487612 1.0382104 1.0233868
000050 bb f2 86 3f 0c 1a 88 3f f7 44 84 3f 5c 41 85 3f
       1.0542825 1.0632949 1.0333546 1.0410571
000060 41 df 84 3f 6a b3 87 3f 19 df 83 3f ed ae 83 3f
       1.0380632 1.0601628 1.0302459 1.0287758
000070 57 b6 86 3f 2b a9 83 3f e6 06 88 3f 12 f3 83 3f
       1.0524396 1.0286001 1.0627105 1.0308554
000080 91 e4 86 3f c1 8f 85 3f 2d 97 87 3f 18 b3 85 3f
       1.0538503 1.0434495 1.059301 1.044528
000090 23 43 87 3f ee 75 86 3f 42 a7 84 3f 40 e4 83 3f
       1.0567364 1.0504739 1.0363543 1.0304031
0000a0 28 56 85 3f 4c 6f 83 3f cb 79 83 3f f0 0f 87 3f
       1.0416918 1.026834 1.0271543 1.0551739
0000b0 78 50 86 3f 2f fd 85 3f 66 c1 85 3f 3d 95 84 3f
       1.0493307 1.046789 1.0449646 1.0358044
0000c0 f1 32 82 3f 65 52 84 3f 03 fa 85 3f c3 54 83 3f
       1.0171796 1.0337645 1.0466923 1.0260242
0000d0 f2 f2 83 3f 3f 00 86 3f a3 a9 87 3f 9a 8f 86 3f
       1.0308516 1.0468825 1.0598644 1.0512574
0000e0 a2 c5 86 3f f6 11 85 3f c9 e7 84 3f b9 a4 83 3f
       1.0529063 1.0396106 1.0383235 1.0284644
0000f0 46 e2 85 3f 47 28 85 3f 09 56 84 3f 22 64 84 3f
       1.0459678 1.0402917 1.0338756 1.0343058

net.9.bias f4 [64]
000000 b3 f7 2b 3b 78 fb 2e 3c b3 bc a9 3c fb 5d 5b 3c
       0.002624017 0.010680072 0.020719862 0.013389106
000010 34 be a2 3c 3f 44 a7 3c 62 a6 17 3c b9 08 44 3c
       0.019866087 0.020418284 0.009255977 0.01196497
000020 89 80 8d 3c d5 88 50 3c af ea 96 3c 33 6d 8c 3c
       0.017273204 0.012727936 0.018422453 0.017141914
000030 10 2b 37 3c 0b 49 62 3c 26 7a f0 ba 70 65 52 3c
       0.0111797005 0.01381136 -0.001834695 0.012841567
000040 01 13 6e 3c f3 60 88 3c ee aa 7b 3c 01 53 58 3b
       0.014530898 0.016647791 0.015360577 0.0033008459
000050 15 de 42 3c 1b 79 77 3c ae 71 10 3b 86 8b 72 3c
       0.011893769 0.015104557 0.0022040415 0.014803773
000060 bf 7f bb 3b fc c0 8c 3c a9 b3 8f 3a 31 d4 f2 bb
       0.0057220156 0.017181866 0.0010963577 -0.007410549
000070 0c 8f b4 3c a5 77 46 3c ab ae d1 3c c4 03 58 3c
       0.022040866 0.012113486 0.025595983 0.013184492
000080 a1 87 8f 3c 16 35 2c bc 8a ab 65 3c 8c 2c 7a 3c
       0.017520728 -0.010510704 0.014017949 0.01526941
000090 19 ca 0b 3c 5f f4 a3 3c e4 21 48 3c 80 08 16 3c
       0.008532071 0.020013986 0.012215111 0.0091573
0000a0 64 38 26 3c 5b b0 95 3b e1 49 f3 3b 56 76 c5 3c
       0.0101452805 0.0045681424 0.0074245785 0.024104279
0000b0 04 1b 8c 3c ad 5e 89 3c 85 77 85 3c fd c0 0b 3c
       0.017102726 0.016768778 0.016292343 0.008529899
0000c0 9d ce 2c 3b 71 e5 3f 3b e0 79 67 3c c7 78 bf 3a
       0.0026368268 0.0029281045 0.014128178 0.0014608138
0000d0 a0 ae 11 3b ff 79 57 3c a4 b5 9c 3c 59 37 ad 3c
       0.0022229329 0.013151645 0.019129582 0.021144556
0000e0 5e 53 cc 3b c1 45 de 3b 3d f2 5e 3c 12 f4 fa 3b
       0.006235524 0.0067832177 0.013607559 0.00765849
0000f0 01 58 f4 3b 5c 2f 47 3c d1 f4 ec 39 48 33 3f 3b
       0.00745678 0.012157287 0.0004519583 0.0029174853

net.9.running_mean f4 [64]
000000 7b e2 c7 be b2 65 ee 3e 7b ef 7a be d5 cb 0c 3f
       -0.39039978 0.46561962 -0.24505417 0.54998523
000010 c0 00 91 3e d9 c6 db bc ac 41 c2 3e 20 1e 21 3c
       0.28320885 -0.026828216 0.3794073 0.0098338425
000020 cd 2b 18 3e ec 48 8c be dc 37 9a 3d 4b 82 80 be
       0.14860459 -0.27399385 0.075301856 -0.25099406
000030 54 db e0 be c0 23 c6 be c4 2f 8d 3e 59 58 c5 be
       -0.43917334 -0.3869915 0.27575505 -0.38543966
000040 10 7a c7 bd a0 e8 14 3d 2f f2 c5 3e 3e 28 26 3d
       -0.097400784 0.03635466 0.38661334 0.04056572
000050 e6 64 81 3e 17 5d 38 be e8 f1 90 3b 5a 26 ad 3d
       0.25272292 -0.18004261 0.0044233687 0.084545806
000060 ca 38 29 be 54 07 af 3e e0 5c 70 3d ff 75 83 3e
       -0.1652557 0.34185278 0.058682323 0.2567596
000070 c2 e3 89 3e 5d d6 21 be fe 4a a9 3e 02 5c a6 3e
       0.26931578 -0.1580443 0.33065027 0.3249207
000080 0c 9a 6c 3c d1 31 e6 3e 02 cf ee bc c1 5e ef 3c
       0.0144410245 0.44959882 -0.029151443 0.029219987
000090 dc 05 1a be 9a 6f 86 be 87 63 1f bf ae 58 f0 3d
       -0.15041298 -0.2625702 -0.6226124 0.11735664
0000a0 90 59 9d 3e 6a 0e bd 3d d4 1f 85 3d cc 7a c1 be
       0.30732393 0.09231265 0.06500211 -0.37789
0000b0 07 bb f6 be 8a 1c fa be 58 51 de bd 21 9d 95 3e
       -0.48189566 -0.488499 -0.10855359 0.29221442
0000c0 1e 87 a8 3d e5 7c 19 3f 2d dc 9f bd f2 28 7a be
       0.082288966 0.599562 -0.07805667 -0.24429682
0000d0 49 4e 41 3e ec f0 8e be ff 8d 07 bd fe 00 8f be
       0.1887752 -0.27918184 -0.033094402 -0.27930444
0000e0 d3 ac 19 be 19 6c a6 3e 26 56 fb be 31 71 09 3f
       -0.15007333 0.32504347 -0.49089164 0.5368834
0000f0 6f 65 23 3d 23 5a 4f 3e 13 ab 71 3e 50 48 09 3f
       0.039891656 0.20249228 0.23600416 0.53625965

net.9.running_var f4 [64]
000000 aa 8d 8b 3e 10 49 42 3e 62 03 0c 3e 9f 73 26 3e
       0.2725652 0.18973184 0.13673165 0.16255043
000010 40 50 0f 3e 42 a6 2e 3e 42 ab fe 3d 31 0e e1 3d
       0.13995457 0.1705561 0.124350086 0.10989035
000020 76 0d 4d 3e 39 23 f9 3d e4 95 27 3e 68 d9 0a 3e
       0.20024666 0.12164921 0.16365772 0.13559496
000030 67 5c d9 3d e0 b1 cc 3d b4 36 24 3e 9d ca 2f 3e
       0.106133275 0.099948645 0.16036493 0.17167135
000040 15 3c 0f 3e 4e 11 1c 3e 96 df 3b 3e 77 1c 01 3e
       0.13987763 0.15240976 0.1834701 0.12608515
000050 15 b7 31 3e 19 b6 b3 3d c5 b9 1c 3e 66 f1 db 3d
       0.17354997 0.08774967 0.1530524 0.107394025
000060 4e 96 21 3e 09 f7 1d 3e ed 65 11 3e 93 c3 37 3e
       0.15779993 0.15426268 0.14199038 0.179457
000070 07 c0 39 3e 57 cb 2e 3e c9 1c 17 3e e2 65 1a 3e
       0.18139659 0.17069755 0.14757074 0.15077928
000080 a7 4f 50 3e aa 9c 6b 3e a3 2b d4 3d 21 bc 07 3e
       0.20342885 0.23008981 0.103598855 0.13255359
000090 d3 34 3a 3e f8 25 b6 3d 31 29 08 3e 0e cd 26 3e
       0.18184213 0.08893961 0.13296963 0.1628916
0000a0 5c 44 08 3e b2 15 1a 3e 6b 69 02 3e ec fc 04 3e
       0.13307327 0.15047339 0.12735526 0.12987107
0000b0 de a9 15 3e d1 be 48 3e e3 c8 eb 3d c1 5c 0e 3e
       0.1461558 0.1960404 0.115129255 0.1390257
0000c0 b5 5c 37 3e 02 53 1f 3e 28 bb d7 3d a3 f6 04 3e
       0.17906459 0.15559009 0.10533744 0.1298471
0000d0 d7 0c 4c 3e 36 24 fe 3d 37 4a 43 3e c2 c8 25 3e
       0.19926773 0.124092504 0.1907128 0.16189864
0000e0 6d f1 02 3e 8d 19 6f 3e 73 cc 09 3e 79 26 9d 3e
       0.12787409 0.2334959 0.13456897 0.30693415
0000f0 8e 0a 27 3e bd 9d 54 3e 0f 28 21 3e 24 46 04 3e
       0.1631262 0.20763297 0.15737937 0.12917382

net.13.weight f4 [128, 576]
000000 fe 2b 0c bd b0 bf 05 bc 80 4d c8 3c 97 61 ba 3b
       -0.03422164 -0.008163378 0.024451017 0.005687903
000010 d0 fd ce bc 85 67 27 3d 66 e3 ca 3c 57 af 61 bc
       -0.025267512 0.04087021 0.024766635 -0.013774714
000020 61 a1 60 3d 9c ed 15 3c 3b 71 c6 3c 02 f2 05 bd
       0.054841403 0.009150889 0.024223914 -0.0327015
000030 bd a5 bf 3c ae 55 08 3c c4 07 7a bc ef 46 d8 bc
       0.02339446 0.008321209 -0.0152606405 -0.026401011
000040 c0 96 a3 3c dd 55 bc 3c 87 36 a1 3c ec d8 c0 bb
       0.019969344 0.022990162 0.019679321 -0.005885234
000050 69 73 16 bd 60 01 3d bc 8e be fd 3b 98 ef 7e bc
       -0.036731157 -0.011535972 0.007743663 -0.015560053
000060 6f 57 ae 3c 08 78 93 3b 50 24 71 3b d3 6f 14 3b
       0.021281926 0.004500393 0.0036795326 0.002264966
000070 3f 36 05 ba 87 90 e1 bc be 24 39 3d 81 d9 81 bb
       -0.00050816307 -0.027534736 0.045201056 -0.003962696
000080 4c 43 c6 bc 31 9f a8 bc ee c9 39 3d 79 f5 70 bc
       -0.024202012 -0.02058372 0.04535859 -0.014706963
000090 4f 49 f3 bc 6b d9 10 bd 94 c3 26 3d 62 c1 38 3b
       -0.029698042 -0.035363596 0.04071386 0.0028191437
0000a0 fc 4a ae 3c cd 63 05 3d f4 17 be bb 06 82 e7 bc
       0.02127599 0.03256588 -0.0058011953 -0.028260242
0000b0 cb 29 6c 3b 03 5d 43 bd 33 13 5d bd 2d 6e 50 3d
       0.0036035653 -0.047696125 -0.053973388 0.05088632
0000c0 61 43 25 bd 19 48 d8 bc 56 31 be bc de b3 33 3d
       -0.04034746 -0.026401566 -0.023216885 0.043872707
0000d0 1d fc ba 3b 00 15 57 3d 20 b9 04 bd cc 1c ba bc
       0.005706324 0.05251026 -0.03240311 -0.02271881
0000e0 5a d8 3c 3c 55 8a 3b 3c 89 84 1b 3c fe 91 ab 3b
       0.011526192 0.011446555 0.009492048 0.0052359095
0000f0 3e 27 34 bd 7f d5 f8 bb 74 08 b5 bb 45 24 63 bc
       -0.043982737 -0.00759381 -0.0055246893 -0.013863628
000100 be d7 26 bd 29 22 88 3c a7 ed 99 3c 0a 01 1a 3d
       -0.04073309 0.016617851 0.01879008 0.037598647
000110 e6 f0 1b 3c 24 df f6 b9 b7 d7 f6 3c c9 02 f1 3c
       0.009517884 -0.0004708703 0.030132158 0.029420273
000120 09 0d 93 bc 2a 0f c6 bb 44 46 fb bb f5 79 56 bc
       -0.017950552 -0.006044288 -0.0076682884 -0.0130906
000130 22 77 fa 3c c1 d1 3b 3d 6a e7 1d 3d 08 e8 75 bc
       0.030574385 0.045854334 0.03855077 -0.015008934
000140 a9 a7 77 3d 90 2d 52 3c fa 9f 6a 3c b1 cb 2c 3d
       0.060462628 0.012828246 0.014320368 0.042186443
000150 60 1e 93 bc 28 f3 78 bc ca 77 50 bd 38 0d 56 bd
       -0.01795882 -0.015194692 -0.05089549 -0.0522587
000160 0c 60 9f bc 5b 22 3f bd ae 50 30 bd 68 03 aa bc
       -0.019454978 -0.046663623 -0.043045692 -0.020753577
000170 11 d6 8f 3d 47 65 92 bc 06 32 99 3d 52 d9 f8 bb
       0.07023252 -0.017870558 0.07480244 -0.007594266
000180 8a c4 5d bd f6 5e a5 3b db f9 d5 3c f1 33 78 3c
       -0.054142512 0.0050467206 0.026120117 0.015149103
000190 17 0a 3d 3d 0e 48 41 bc 5d 94 2f bd ba 09 14 3d
       0.0461522 -0.011796964 -0.0428661 0.03614209
0001a0 20 1e e7 3c 81 26 17 3d 9d 18 47 3d 44 da 4b 3d
       0.028212607 0.036901955 0.048607457 0.0497687
0001b0 da f6 b4 bc e3 6d 39 3d 4c 4c e3 bb 8d 48 36 3c
       -0.022090364 0.04527081 -0.0069365855 0.011125696
0001c0 8f 5e ce 3c 96 54 72 3c 74 52 44 3c b9 9a eb bc
       0.025191573 0.014790675 0.011982549 -0.028760301
0001d0 71 d8 b5 bc 48 29 5c bc f7 9c 1a bc b4 5e 07 3d
       -0.022197934 -0.013437577 -0.009436837 0.0330493
0001e0 04 ad 93 3b 80 12 bb ba 34 7c df 3c 3a 34 b6 3c
       0.004506709 -0.0014272481 0.027280904 0.0222417
0001f0 0e e6 20 b9 33 c5 4f 3d ed bc 96 bc 7e f4 98 3c
       -0.00015344491 0.050725173 -0.018400634 0.01867127
000200 6a 67 77 3c 27 9c 82 bc 4a f9 c6 bc dd 0e bf 3a
       0.015100339 -0.0159436 -0.024288792 0.0014576573
000210 37 7b fe 3c 06 4a 66 3b 1d 6f e6 bb d3 0e b9 bc
       0.031064613 0.0035139336 -0.0070322887 -0.022590077
000220 91 78 11 bc b1 4a 47 3d 48 3d af bc cd bf 28 3d
       -0.008878843 0.048655216 -0.021391526 0.04119854
000230 41 a6 d0 3c 32 b5 42 bc d3 c1 f7 bc c0 c6 d1 3c
       0.025469901 -0.011884021 -0.03024379 0.025607467
000240 97 fd 3c 3d 2b 01 2f bd 4b 04 84 3c 21 ee 68 bc
       0.04614028 -0.042725723 0.016115328 -0.014216931
000250 60 4e d3 3c 81 5b a1 bc 9e 88 dc bb 2a 96 b0 3c
       0.025794208 -0.019696953 -0.006730153 0.021555979
000260 62 1e 2c bd 90 26 04 bd cb e0 dc bc b6 66 10 bd
       -0.042021163 -0.03226334 -0.026962658 -0.035254203
000270 98 9b e6 ba de 69 b7 bb d8 09 cd 3c 97 1c 37 3d
       -0.0017593978 -0.005597337 0.025029108 0.044705
000280 7e b6 1a 3d 0c f9 e4 bb 64 d7 2d 3d f4 f1 89 bc
       0.037771694 -0.0069876965 0.04244174 -0.016839005
000290 48 e9 1f 3c 81 75 dc 3c 20 84 4c 3d 59 0b 1d bd
       0.009760208 0.026911499 0.04993069 -0.0383409
0002a0 81 05 ab 3a 7a 43 60 bc 5e 12 45 3c 96 5e da ba
       0.0013047905 -0.013687963 0.012028305 -0.0016660269
0002b0 e3 3d ec 3c e8 2e 06 bb ec 85 7f bc e0 83 51 3c
       0.028838104 -0.0020474736 -0.015595894 0.012787789
0002c0 f6 61 eb 3b 15 83 2c 38 ca 23 4e 3d bf ed a0 bb
       0.0071833087 4.1130075e-05 0.0503271 -0.004911154
0002d0 be 03 a8 bc 45 6a 4c bc 80 ac 08 3d 3b 1c e1 3c
       -0.020509597 -0.0124765085 0.033367634 0.027479282
0002e0 a5 5e ef 3c d9 38 77 bc c5 72 6a bd e1 a5 ce 3b
       0.029219935 -0.015089237 -0.05723836 0.0063063954
0002f0 c8 0f 00 bc fb 6a 03 3d 83 33 2a bc 5d 07 f7 3c
       -0.007816263 0.032084446 -0.010388258 0.030154878
000300 50 f8 09 3d 30 c7 27 bd f4 89 aa 3c cc 99 ba 3c
       0.033684075 -0.040961444 0.020817734 0.022778414
000310 2d dd 92 3c ab fe 3e 3d 5e 97 f4 bb ec af 69 3a
       0.01792773 0.04662959 -0.0074643334 0.0008914459
000320 6c c4 84 bb 6e e7 2a 3d 6c b2 09 3d 7d 35 45 bb
       -0.0040517356 0.041724615 0.033617422 -0.0030091696
000330 a5 25 44 bd ff c3 b0 3c ef a7 61 3d 8c 8a a8 bc
       -0.047887463 0.021577833 0.055091795 -0.020573877
000340 3a bb 47 bc 41 92 96 bc 84 c6 4d bc 50 23 07 3d
       -0.012190634 -0.018380286 -0.012559537 0.03299266
000350 a4 49 1c bc b5 2e 55 3c d7 59 dd 3c ee 13 c1 3c
       -0.009539042 0.013011624 0.027020378 0.023569074
000360 da 3f f0 3b a1 cd 84 ba 41 a1 b2 3c 50 0b ec 3a
       0.0073318304 -0.0010132083 0.021805407 0.0018008742
000370 96 87 91 3c e4 75 05 bc 67 8e 0c bd 4c b6 87 bc
       0.017764848 -0.008145783 -0.034315493 -0.016566418
000380 5f 71 c3 3c fe c2 04 3d 64 2f 7f bc f9 cf 34 3d
       0.02385777 0.03241252 -0.015575264 0.04414365
000390 14 a5 d9 3c 98 1e 15 3c 6b 9d 97 3c bf f0 35 3d
       0.026567973 0.009101532 0.01850768 0.044419046
0003a0 33 4d d5 bc 8f ae 4b 3c 95 55 b1 3b 2d de 22 bd
       -0.026037788 0.012431755 0.0054118135 -0.039762665
0003b0 d1 2b 0f bd 20 33 ea 3c 13 a5 84 bd 27 4b ff bc
       -0.034953896 0.028588831 -0.06476798 -0.031163765
0003c0 ae d1 1a bd 1c 80 27 bd 72 80 2b bd 03 6b 87 bc
       -0.037797622 -0.04089366 -0.041870542 -0.01653052
0003d0 d5 0a f8 3a 0e 77 6d 3c 69 48 50 bd 3b f7 1d bd
       0.0018924127 0.014493717 -0.050850306 -0.038565855
0003e0 15 21 46 3c cc 19 34 bd 62 4b 2c bd 37 f2 07 bc
       0.012092848 -0.043969914 -0.04206408 -0.008297495
0003f0 76 ff 05 3d 05 86 bf 3c 89 04 39 bb be 17 68 3b
       0.03271433 0.023379335 -0.0028231463 0.0035414542

net.13.bias f4 [128]
000000 b6 e9 3f bc 72 e1 4b 3c e7 b7 fe 3c a7 46 9c 3c
       -0.011713436 0.012443887 0.03109355 0.019076658
000010 c5 b3 94 bb b0 6b 9c bc d5 5e 25 bc ed ce 37 bc
       -0.0045380318 -0.019094318 -0.0100934105 -0.011218769
000020 2c ac 5a 3c 4a 3b ac 3c 03 97 83 bc d8 3d e7 3b
       0.013346713 0.021024365 -0.016063219 0.007056933
000030 c9 14 01 3d 88 83 3b bc 24 b9 27 3d 03 a8 9f bb
       0.031513963 -0.011444934 0.04094805 -0.0048723235
000040 d9 41 37 bd 0a 00 1a 3d 46 04 10 3d 34 3d 5f bb
       -0.04474053 0.037597694 0.035160325 -0.003406358
000050 be 55 da bc af 1d 0f bd 0d 7a 17 bb 87 5e 31 bd
       -0.026652213 -0.034940418 -0.002311352 -0.04330304
000060 ee 60 de 3b 55 a6 86 3c 60 a8 44 bc 35 b5 ff 3c
       0.0067864573 0.016436735 -0.012003034 0.031214336
000070 b3 62 00 3d 70 7c 40 bc f8 a9 b6 3c 77 72 f9 3b
       0.031344127 -0.011748418 0.022297844 0.007612522
000080 92 98 bf bc 56 e8 cc 3b bc 78 65 3d 79 37 d5 bc
       -0.02338818 0.0062532825 0.056023344 -0.026027428
000090 01 07 91 bc be 7b f6 3c 03 8a b7 bc 5e d2 20 3d
       -0.017703535 0.030088302 -0.022404676 0.03926312
0000a0 1e 82 9e bc 79 3a af 3c 2f f6 93 bc 3e a3 18 bc
       -0.019349154 0.021390187 -0.018061725 -0.009316264
0000b0 ae 08 88 bc 3d 63 84 3c ef ad df bb 48 9b 30 bc
       -0.016605701 0.016160602 -0.0068261544 -0.010779209
0000c0 65 cf e9 bc 31 9f bd 3c 81 d5 b5 3c 97 82 73 3c
       -0.028541276 0.023147197 0.022196533 0.014862678
0000d0 bc 76 01 bc c0 4e f5 3b de 14 04 3d f4 1b 09 3c
       -0.007901844 0.0074861944 0.032246463 0.008368481
0000e0 ae b0 9a bc 25 a4 3b 3b 49 dd e6 3c 6d 7f 7f bc
       -0.018883076 0.0028631773 0.028181689 -0.0155943455
0000f0 28 9b ac 3c 98 51 1d 3d 88 d4 a2 3c 25 68 e9 bb
       0.021070078 0.038407892 0.019876733 -0.0071230107
000100 f2 2a 95 bc 0f 4b 02 bd fa 78 e5 bc dc 42 c5 3c
       -0.018208954 -0.031809863 -0.028011788 0.024079733
000110 d3 03 13 bd a7 e4 32 bc 8d 1c de 3c 84 e7 73 bc
       -0.03589232 -0.010918773 0.027113223 -0.014886741
000120 73 c6 4f bc 61 50 ef bb b4 37 a9 3c 07 dd 86 3c
       -0.012681591 -0.007303283 0.020656444 0.016462816
000130 44 05 3d 3c c0 49 82 bc af 6e c8 bc e6 a3 aa bc
       0.0115369 -0.015904307 -0.02446684 -0.020830106
000140 61 f6 22 3c 8d 1f fb 3c cf 46 f2 bc df 40 c2 bc
       0.009946437 0.030654693 -0.02957478 -0.023712574
000150 78 8c 20 3d 59 5a 8c bb e9 ce 1f 3d 6a 31 00 3d
       0.03919646 -0.004283231 0.039015684 0.031297125
000160 73 b3 fc 3c 13 c1 fc 3c b0 13 b1 3b ba 2e 2f 3c
       0.030847287 0.030853784 0.0054039583 0.010692293
000170 cc 6b 35 3c e0 22 2b 3c a9 5e 89 3c 19 45 21 bc
       0.011073064 0.010445327 0.01676877 -0.009843134
000180 fb cc 97 bc d3 40 a8 bc c7 5e 12 bd c6 c5 9f 3c
       -0.01853036 -0.020538723 -0.035734918 0.019503485
000190 37 c1 cf bc 0a 2e 47 3d d9 51 0f 3d 7c ab 16 3d
       -0.025360687 0.04862789 0.034990165 0.036784634
0001a0 82 1a 42 bb 41 74 75 bc 31 71 46 3d 56 b3 7c 3c
       -0.002961785 -0.01498133 0.04844779 0.015423616
0001b0 f7 a1 0c 3d 48 8f 14 3d 40 c3 01 bb b9 6b ac bc
       0.03433415 0.036269456 -0.0019800216 -0.02104746
0001c0 96 09 bc 3c f5 f6 d2 3a fc 0a 48 3c 01 84 39 3d
       0.02295379 0.0016095327 0.01220965 0.045291904
0001d0 af 5c af bc ca cc f3 3b 14 2f 02 3a e8 5b d1 bc
       -0.0214065 0.0074401842 0.00049661216 -0.02555652
0001e0 f3 17 2c 3c 52 1c 20 bd bf d1 77 ba 38 f9 10 3b
       0.010503757 -0.03908951 -0.0009453557 0.0022121202
0001f0 99 c8 21 3c e1 34 5c 3c ff 16 a8 bc 26 7c 97 3c
       0.009874486 0.013440342 -0.020518778 0.018491816
